…
te=952) . &#47784;&#45944; 1 . import tensorflow as tf from tensorflow.keras import models, layers embedding_dim = 100 mod_1 = models.Sequential([ layers.Embedding(max_words, embedding_dim, input_length=maxlen), layers.Flatten(), layers.Dropout(0.5), layers.Dense(32, activation=&#39;relu&#39;), layers.Dropout(0.5), layers.Dense(1, activation=&#39;sigmoid&#39;) ]) mod_1.summary() . Model: &#34;sequential&#34; _________________________________________________________________ Layer (type) Output Shape Param # ================================================================= embedding (Embedding) (None, 40, 100) 8000000 _________________________________________________________________ flatten (Flatten) (None, 4000) 0 _________________________________________________________________ dropout (Dropout) (None, 4000) 0 _________________________________________________________________ dense (Dense) (None, 32) 128032 _________________________________________________________________ dropout_1 (Dropout) (None, 32) 0 _________________________________________________________________ dense_1 (Dense) (None, 1) 33 ================================================================= Total params: 8,128,065 Trainable params: 8,128,065 Non-trainable params: 0 _________________________________________________________________ . mod_1.compile( optimizer=&#39;rmsprop&#39;, loss=&#39;binary_crossentropy&#39;, metrics=[&#39;accuracy&#39;] ) early_stopping_cb = tf.keras.callbacks.EarlyStopping(monitor=&#39;val_accuracy
…
 out = layers.Dense(1, &quot;relu&quot;)(out) out = layers.Dense(1, &quot;relu&quot;, kernel_constraint=max_norm(3.0))(out) mod_2 = models.Model(inp, out) mod_2.summary() . Model: &#34;model&#34; __________________________________________________________________________________________________ Layer (type) Output Shape Param # Connected to ================================================================================================== input_1 (InputLayer) [(None, 40)] 0 __________________________________________________________________________________________________ embedding_1 (Embedding) (None, 40, 128) 10240000 input_1[0][0] __________________________________________________________________________________________________ dropout_2 (Dropout) (None, 40, 128) 0 embedding_1[0][0] __________________________________________________________________________________________________ conv1d (Conv1D) (None, 38, 100) 38500 dropout_2[0][0] __________________________________________________________________________________________________ conv1d_1 (Conv1D) (None, 37, 100) 51300 dropout_2[0][0] __________________________________________________________________________________________________ conv1d_2 (Conv1D) (None, 36, 100) 64100 dropout_2[0][0] __________________________________________________________________________________________________ global_max_pooling1d (GlobalMax (None, 100) 0 conv1d[0][0] __________________________________________________________________________________________________ global_max_pooling1d_1 (GlobalM (None, 100) 0 conv1d_1[0][0] __________________________________________________________________________________________________ global_max_pooling1d_2 (GlobalM (None, 100) 0 conv1d_2[0][0] __________________________________________________________________________________________________ tf.concat (TFOpLambda) (None, 300) 0 global_max_pooling1d[0][0] global_max_pooling1d_1[0][0] global_max_pooling1d_2[0][0] __________________________________________________________________________________________________ dense_2 (Dense) (None, 250) 75250 tf.concat[0][0] __________________________________________________________________________________________________ dense_3 (Dense) (None, 1) 251 dense_2[0][0] ================================================================================================== Total params: 10,469,401 Trainable params: 10,469,401 Non-trainable params: 0 __________________________________________________________________________________________________ . tf.keras.utils.plot_model(mod_2, show_shapes=True) . mod_2.compile( optimizer=&#39;rmsprop&#39;, loss=&#39;
…
